data/neon_googlenet/Bias/module.linear.bias.npy (npy, 1128 bytes, 1 tensors)

array i1 [1000]
000000 01 fe ff fb 03 01 fb 00 02 02 f9 fd fc fd fe fc
       1 -2 -1 -5 3 1 -5 0 2 2 -7 -3 -4 -3 -2 -4
000010 00 fe 03 fe 03 0a 00 03 fa fe 06 fb ff fe fd 00
       0 -2 3 -2 3 10 0 3 -6 -2 6 -5 -1 -2 -3 0
000020 01 fe 00 fc 01 fe 01 fe 00 00 02 fc 04 fe 05 fd
       1 -2 0 -4 1 -2 1 -2 0 0 2 -4 4 -2 5 -3
000030 fb 00 fe ff 02 05 05 ff 05 fd 03 02 02 00 fe 01
       -5 0 -2 -1 2 5 5 -1 5 -3 3 2 2 0 -2 1
000040 00 04 fd fe 03 00 fb 02 ff 02 01 02 00 00 01 06
       0 4 -3 -2 3 0 -5 2 -1 2 1 2 0 0 1 6
000050 fe 02 03 f6 fd ff ff 02 03 02 fc ff 03 fe fc fa
       -2 2 3 -10 -3 -1 -1 2 3 2 -4 -1 3 -2 -4 -6
000060 ff ff f7 00 fc f9 fc fe 03 fa fd ff fd fb fb 03
       -1 -1 -9 0 -4 -7 -4 -2 3 -6 -3 -1 -3 -5 -5 3
000070 fb ff 01 fb fa fd fe 00 fa fe 01 fa 05 fe fe ff
       -5 -1 1 -5 -6 -3 -2 0 -6 -2 1 -6 5 -2 -2 -1
000080 01 ff fb fd fe 00 fe fa fc f9 fe f6 fc fc f8 fc
       1 -1 -5 -3 -2 0 -2 -6 -4 -7 -2 -10 -4 -4 -8 -4
000090 fc fc 03 f9 fb fc fd 03 fc 01 02 fd ff fb fd fe
       -4 -4 3 -7 -5 -4 -3 3 -4 1 2 -3 -1 -5 -3 -2
0000a0 fe 04 08 fe ff fa fe fb ff fe ff 00 01 01 ff fd
       -2 4 8 -2 -1 -6 -2 -5 -1 -2 -1 0 1 1 -1 -3
0000b0 fd ff 03 02 ff fa 03 fb 04 00 ff 02 02 fd ff 00
       -3 -1 3 2 -1 -6 3 -5 4 0 -1 2 2 -3 -1 0
0000c0 05 fe ff 07 02 02 fc 05 01 02 04 03 05 00 fd 04
       5 -2 -1 7 2 2 -4 5 1 2 4 3 5 0 -3 4
0000d0 01 03 fb 05 00 fc 02 00 fe 07 ff 03 02 fd 00 07
       1 3 -5 5 0 -4 2 0 -2 7 -1 3 2 -3 0 7
0000e0 fc 03 fe ff fd 03 00 00 08 01 05 fe 06 02 ff 06
       -4 3 -2 -1 -3 3 0 0 8 1 5 -2 6 2 -1 6
0000f0 01 ff 04 ff 03 06 01 04 02 fb 00 00 ff fc 01 fc
       1 -1 4 -1 3 6 1 4 2 -5 0 0 -1 -4 1 -4
