data/neon_resnet50_float/1.layer2.3.conv2.bias.npy (npy, 640 bytes, 1 tensors)

array f4 [128]
-0.05078125 0.1953125 -0.05078125 0.0 -0.0546875 0.19921875 0.1015625 -0.05078125
0.01171875 0.0234375 0.15625 0.0390625 0.0625 0.1875 0.0625 0.02734375
0.16796875 -0.1015625 0.05078125 0.02734375 0.1875 0.18359375 0.16796875 0.1640625
-0.00390625 0.16015625 0.1640625 0.1953125 0.18359375 0.1328125 0.05859375 0.015625
0.234375 -0.0234375 0.2890625 0.0859375 0.06640625 0.2421875 -0.0703125 0.08984375
0.2265625 0.16796875 0.14453125 0.1171875 0.15234375 0.04296875 0.11328125 0.0234375
-0.10546875 -0.078125 0.08203125 0.1796875 0.2265625 0.11328125 0.078125 0.17578125
-0.05859375 0.203125 -0.0234375 -0.12109375 0.078125 0.25 -0.0546875 0.1015625
-0.01953125 0.3046875 0.25390625 0.19140625 0.07421875 0.0234375 -0.00390625 0.05078125
0.0078125 0.09765625 0.09375 0.1796875 0.05859375 0.10546875 0.2734375 -0.046875
0.03125 0.17578125 -0.0390625 0.1171875 0.1796875 -0.1171875 -0.0234375 0.14453125
-0.03515625 0.1875 0.1171875 0.2421875 0.06640625 0.015625 0.0234375 -0.01171875
0.0234375 -0.046875 0.10546875 -0.0078125 -0.12890625 0.13671875 0.1875 0.109375
0.15625 0.03125 0.0859375 0.015625 -0.07421875 0.1484375 0.00390625 0.203125
0.1953125 0.1484375 0.2265625 0.02734375 0.03515625 0.25 0.01953125 0.12890625
-0.10546875 -0.0703125 0.16796875 0.23828125 0.14453125 0.08203125 0.1796875 -0.078125
00000000: 0000 50bd 0000 483e 0000 50bd 0000 0000
00000010: 0000 60bd 0000 4c3e 0000 d03d 0000 50bd
00000020: 0000 403c 0000 c03c 0000 203e 0000 203d
00000030: 0000 803d 0000 403e 0000 803d 0000 e03c
00000040: 0000 2c3e 0000 d0bd 0000 503d 0000 e03c
00000050: 0000 403e 0000 3c3e 0000 2c3e 0000 283e
00000060: 0000 80bb 0000 243e 0000 283e 0000 483e
00000070: 0000 3c3e 0000 083e 0000 703d 0000 803c
00000080: 0000 703e 0000 c0bc 0000 943e 0000 b03d
00000090: 0000 883d 0000 783e 0000 90bd 0000 b83d
000000a0: 0000 683e 0000 2c3e 0000 143e 0000 f03d
000000b0: 0000 1c3e 0000 303d 0000 e83d 0000 c03c
000000c0: 0000 d8bd 0000 a0bd 0000 a83d 0000 383e
000000d0: 0000 683e 0000 e83d 0000 a03d 0000 343e
000000e0: 0000 70bd 0000 503e 0000 c0bc 0000 f8bd
000000f0: 0000 a03d 0000 803e 0000 60bd 0000 d03d
00000100: 0000 a0bc 0000 9c3e 0000 823e 0000 443e
00000110: 0000 983d 0000 c03c 0000 80bb 0000 503d
00000120: 0000 003c 0000 c83d 0000 c03d 0000 383e
00000130: 0000 703d 0000 d83d 0000 8c3e 0000 40bd
00000140: 0000 003d 0000 343e 0000 20bd 0000 f03d
00000150: 0000 383e 0000 f0bd 0000 c0bc 0000 143e
00000160: 0000 10bd 0000 403e 0000 f03d 0000 783e
00000170: 0000 883d 0000 803c 0000 c03c 0000 40bc
00000180: 0000 c03c 0000 40bd 0000 d83d 0000 00bc
00000190: 0000 04be 0000 0c3e 0000 403e 0000 e03d
000001a0: 0000 203e 0000 003d 0000 b03d 0000 803c
000001b0: 0000 98bd 0000 183e 0000 803b 0000 503e
000001c0: 0000 483e 0000 183e 0000 683e 0000 e03c
000001d0: 0000 103d 0000 803e 0000 a03c 0000 043e
000001e0: 0000 d8bd 0000 90bd 0000 2c3e 0000 743e
000001f0: 0000 143e 0000 a83d 0000 383e 0000 a0bd
