data/neon_resnet50/bias/1.layer2.3.conv3.bias.npy (npy, 640 bytes, 1 tensors)

array i1 [512]
000000 02 09 01 02 00 13 04 0c 06 13 04 fb fa 00 ff 00
       2 9 1 2 0 19 4 12 6 19 4 -5 -6 0 -1 0
000010 00 00 23 07 00 02 fd 00 29 00 0d 12 fd ff 01 07
       0 0 35 7 0 2 -3 0 41 0 13 18 -3 -1 1 7
000020 19 15 00 04 00 eb 00 fb 08 00 0f 01 04 1d 06 ff
       25 21 0 4 0 -21 0 -5 8 0 15 1 4 29 6 -1
000030 fd 0c fe 01 0a 00 08 07 0a 01 e0 09 08 00 01 f5
       -3 12 -2 1 10 0 8 7 10 1 -32 9 8 0 1 -11
000040 01 f7 0b 01 0b 11 06 01 01 02 0d 17 04 08 07 13
       1 -9 11 1 11 17 6 1 1 2 13 23 4 8 7 19
000050 fa 00 14 03 0c 15 00 f3 0f f4 00 fc 02 f0 01 fe
       -6 0 20 3 12 21 0 -13 15 -12 0 -4 2 -16 1 -2
000060 0b 09 0f 06 05 06 ff 08 23 09 01 ff 06 ff 28 14
       11 9 15 6 5 6 -1 8 35 9 1 -1 6 -1 40 20
000070 ff 00 00 0a 15 06 11 0c 00 fa 0a 09 00 fb ff 13
       -1 0 0 10 21 6 17 12 0 -6 10 9 0 -5 -1 19
000080 f6 03 11 fc 15 fc 0e 01 00 10 14 05 1d fe 00 00
       -10 3 17 -4 21 -4 14 1 0 16 20 5 29 -2 0 0
000090 0a 01 1e 02 0c 00 05 ff 09 0e f1 04 f2 f9 00 0d
       10 1 30 2 12 0 5 -1 9 14 -15 4 -14 -7 0 13
0000a0 00 f4 12 ff f4 fe 04 ff 06 03 0e 03 00 01 00 01
       0 -12 18 -1 -12 -2 4 -1 6 3 14 3 0 1 0 1
0000b0 0c f7 09 09 07 f0 f7 f9 05 13 00 fa 1b 19 05 06
       12 -9 9 9 7 -16 -9 -7 5 19 0 -6 27 25 5 6
0000c0 01 00 f8 fd 0b ff 15 0d 0f ff 00 03 04 0f 04 fa
       1 0 -8 -3 11 -1 21 13 15 -1 0 3 4 15 4 -6
0000d0 0e 15 f8 ff f5 07 00 02 fe 00 fb 14 09 03 01 06
       14 21 -8 -1 -11 7 0 2 -2 0 -5 20 9 3 1 6
0000e0 07 fb ff 06 01 09 00 03 01 00 13 08 00 01 01 fe
       7 -5 -1 6 1 9 0 3 1 0 19 8 0 1 1 -2
0000f0 00 f7 00 10 17 07 00 fe ff 06 08 ed 06 03 fe fd
       0 -9 0 16 23 7 0 -2 -1 6 8 -19 6 3 -2 -3
