data/neon_resnet50/bias/1.layer3.5.conv3.bias.npy (npy, 1152 bytes, 1 tensors)

array i1 [1024]
0	0x03	3
1	0xfb	-5
2	0x00	0
3	0x00	0
4	0x00	0
5	0x00	0
6	0x0b	11
7	0xf4	-12
8	0x00	0
9	0x00	0
10	0x03	3
11	0x04	4
12	0x04	4
13	0x00	0
14	0x04	4
15	0x06	6
16	0x00	0
17	0x00	0
18	0xfd	-3
19	0x00	0
20	0x00	0
21	0xff	-1
22	0x00	0
23	0x22	34
24	0x00	0
25	0x11	17
26	0xfe	-2
27	0xff	-1
28	0x00	0
29	0x00	0
30	0x02	2
31	0x00	0
32	0xff	-1
33	0x0a	10
34	0xff	-1
35	0x02	2
36	0x03	3
37	0x05	5
38	0x00	0
39	0x00	0
40	0x09	9
41	0x00	0
42	0x05	5
43	0x04	4
44	0xfd	-3
45	0x00	0
46	0x00	0
47	0x03	3
48	0xfb	-5
49	0x0a	10
50	0x05	5
51	0x01	1
52	0x00	0
53	0x01	1
54	0x04	4
55	0x02	2
56	0x0d	13
57	0x00	0
58	0x04	4
59	0x0a	10
60	0x04	4
61	0x00	0
62	0xff	-1
63	0x00	0
64	0x00	0
65	0x00	0
66	0x00	0
67	0x00	0
68	0x09	9
69	0x00	0
70	0x00	0
71	0x06	6
72	0x0a	10
73	0x00	0
74	0x00	0
75	0x08	8
76	0x00	0
77	0x00	0
78	0x05	5
79	0x00	0
80	0x0e	14
81	0xfe	-2
82	0xfd	-3
83	0xff	-1
84	0x0b	11
85	0x04	4
86	0x0e	14
87	0x09	9
88	0x01	1
89	0x0a	10
90	0x0e	14
91	0x0a	10
92	0xfa	-6
93	0xf3	-13
94	0xfb	-5
95	0x07	7
96	0x00	0
97	0x11	17
98	0x00	0
99	0xf6	-10
100	0x05	5
101	0x00	0
102	0x05	5
103	0x00	0
104	0x00	0
105	0x06	6
106	0x00	0
107	0xf5	-11
108	0x06	6
109	0x02	2
110	0x00	0
111	0x00	0
112	0x04	4
113	0x13	19
114	0x13	19
115	0x11	17
116	0x00	0
117	0x02	2
118	0x00	0
119	0x00	0
120	0x03	3
121	0x06	6
122	0x03	3
123	0x06	6
124	0x12	18
125	0xfc	-4
126	0x03	3
127	0x04	4
128	0x05	5
129	0x09	9
130	0xfc	-4
131	0xfc	-4
132	0x00	0
133	0xfa	-6
134	0x00	0
135	0x03	3
136	0xfc	-4
137	0xfc	-4
138	0x00	0
139	0xf9	-7
140	0x03	3
141	0xff	-1
142	0x08	8
143	0x00	0
144	0x06	6
145	0x14	20
146	0x0a	10
147	0x05	5
148	0x00	0
149	0x08	8
150	0x1c	28
151	0x00	0
152	0x00	0
153	0x00	0
154	0x06	6
155	0x00	0
156	0x03	3
157	0x00	0
158	0x00	0
159	0x00	0
160	0x0b	11
161	0x00	0
162	0x05	5
163	0x0f	15
164	0x03	3
165	0x00	0
166	0x01	1
167	0x08	8
168	0x06	6
169	0xf7	-9
170	0x07	7
171	0xfd	-3
172	0xfa	-6
173	0x0e	14
174	0x00	0
175	0x00	0
176	0x00	0
177	0x00	0
178	0x05	5
179	0x04	4
180	0x03	3
181	0x03	3
182	0x00	0
183	0x00	0
184	0x06	6
185	0x09	9
186	0x01	1
187	0xff	-1
188	0x00	0
189	0x00	0
190	0xf8	-8
191	0x00	0
192	0x00	0
193	0x00	0
194	0x00	0
195	0x07	7
196	0x06	6
197	0xff	-1
198	0x09	9
199	0x12	18
200	0x00	0
201	0x08	8
202	0x03	3
203	0x00	0
204	0x10	16
205	0x0a	10
206	0x00	0
207	0xf3	-13
208	0x00	0
209	0x02	2
210	0xfa	-6
211	0x0b	11
212	0x00	0
213	0x00	0
214	0xfe	-2
215	0x02	2
216	0x03	3
217	0xff	-1
218	0x09	9
219	0xfb	-5
220	0x02	2
221	0xfd	-3
222	0x03	3
223	0x05	5
224	0x00	0
225	0x06	6
226	0x00	0
227	0x00	0
228	0x00	0
229	0xf8	-8
230	0xfb	-5
231	0x07	7
232	0x04	4
233	0x00	0
234	0x00	0
235	0x0b	11
236	0x04	4
237	0x00	0
238	0x00	0
239	0x00	0
240	0x10	16
241	0x05	5
242	0x00	0
243	0xfb	-5
244	0x00	0
245	0x00	0
246	0x01	1
247	0xf8	-8
248	0x00	0
249	0x00	0
250	0xfa	-6
251	0x00	0
252	0x04	4
253	0x03	3
254	0x12	18
255	0x05	5
