data/neon_resnet50/bias/1.layer4.2.conv3.bias.npy (npy, 2176 bytes, 1 tensors)

array i1 [2048]
0	0x2e	46
1	0xfa	-6
2	0x08	8
3	0x0d	13
4	0xf5	-11
5	0x13	19
6	0x06	6
7	0x19	25
8	0xfd	-3
9	0x06	6
10	0xf0	-16
11	0x13	19
12	0xdf	-33
13	0x0b	11
14	0x0e	14
15	0xe3	-29
16	0x11	17
17	0x05	5
18	0xfe	-2
19	0xfe	-2
20	0xf2	-14
21	0xf2	-14
22	0x04	4
23	0x0c	12
24	0xf4	-12
25	0x35	53
26	0xf4	-12
27	0x38	56
28	0x09	9
29	0x07	7
30	0xef	-17
31	0xee	-18
32	0xe7	-25
33	0x1b	27
34	0x05	5
35	0x04	4
36	0xfe	-2
37	0x00	0
38	0x20	32
39	0x29	41
40	0x18	24
41	0xf4	-12
42	0x08	8
43	0x05	5
44	0xf3	-13
45	0xf6	-10
46	0xfc	-4
47	0xe9	-23
48	0x0e	14
49	0xec	-20
50	0x11	17
51	0xff	-1
52	0x00	0
53	0xf6	-10
54	0xf8	-8
55	0xec	-20
56	0xf2	-14
57	0x1a	26
58	0xf7	-9
59	0x11	17
60	0xef	-17
61	0x05	5
62	0xfe	-2
63	0xe1	-31
64	0xfc	-4
65	0x0a	10
66	0xf4	-12
67	0xff	-1
68	0xfd	-3
69	0xdb	-37
70	0xf9	-7
71	0x02	2
72	0x0e	14
73	0xf0	-16
74	0x12	18
75	0x09	9
76	0xfa	-6
77	0x12	18
78	0xfd	-3
79	0xf4	-12
80	0xf6	-10
81	0x12	18
82	0xf8	-8
83	0xe8	-24
84	0x1b	27
85	0xec	-20
86	0x0d	13
87	0x21	33
88	0x24	36
89	0xe5	-27
90	0x23	35
91	0xf9	-7
92	0xf6	-10
93	0x08	8
94	0xfa	-6
95	0xf1	-15
96	0x17	23
97	0xfa	-6
98	0x1d	29
99	0xed	-19
100	0xdd	-35
101	0xed	-19
102	0x2b	43
103	0xfa	-6
104	0x0f	15
105	0xf4	-12
106	0xfd	-3
107	0xfe	-2
108	0x30	48
109	0x19	25
110	0xdb	-37
111	0xf9	-7
112	0x1e	30
113	0x0e	14
114	0x00	0
115	0xfc	-4
116	0x03	3
117	0x12	18
118	0x27	39
119	0xf2	-14
120	0x0e	14
121	0x21	33
122	0x06	6
123	0x0a	10
124	0x20	32
125	0x12	18
126	0x21	33
127	0x16	22
128	0x00	0
129	0x1a	26
130	0x01	1
131	0x2a	42
132	0x09	9
133	0x24	36
134	0xf2	-14
135	0x1c	28
136	0xf3	-13
137	0x0c	12
138	0x00	0
139	0x0e	14
140	0xf6	-10
141	0xfd	-3
142	0x0b	11
143	0xe9	-23
144	0x0e	14
145	0x00	0
146	0x26	38
147	0xe9	-23
148	0x0a	10
149	0x0d	13
150	0xf6	-10
151	0x00	0
152	0xf2	-14
153	0xe9	-23
154	0x0a	10
155	0x2d	45
156	0x30	48
157	0x20	32
158	0xea	-22
159	0xe5	-27
160	0x24	36
161	0x0b	11
162	0x1c	28
163	0x0e	14
164	0xef	-17
165	0x05	5
166	0x10	16
167	0x30	48
168	0xe4	-28
169	0x0e	14
170	0xfa	-6
171	0x19	25
172	0xfd	-3
173	0x2c	44
174	0x06	6
175	0x03	3
176	0x08	8
177	0x1e	30
178	0x05	5
179	0x17	23
180	0xed	-19
181	0x08	8
182	0xe3	-29
183	0x07	7
184	0x1d	29
185	0xfc	-4
186	0xfa	-6
187	0xf0	-16
188	0xe7	-25
189	0xee	-18
190	0xfb	-5
191	0x10	16
192	0x13	19
193	0x07	7
194	0xf0	-16
195	0xe4	-28
196	0x21	33
197	0x09	9
198	0xfd	-3
199	0x05	5
200	0x06	6
201	0xf8	-8
202	0x12	18
203	0x0b	11
204	0xf5	-11
205	0x0b	11
206	0xf4	-12
207	0xfc	-4
208	0x0a	10
209	0x41	65
210	0xf7	-9
211	0xf6	-10
212	0x02	2
213	0xf9	-7
214	0xf5	-11
215	0x06	6
216	0x0c	12
217	0x00	0
218	0x19	25
219	0xe9	-23
220	0xf1	-15
221	0xef	-17
222	0x25	37
223	0x09	9
224	0xfe	-2
225	0x0d	13
226	0x19	25
227	0xf9	-7
228	0x05	5
229	0xe8	-24
230	0x02	2
231	0xea	-22
232	0x1e	30
233	0xfe	-2
234	0x33	51
235	0xf6	-10
236	0x1a	26
237	0xf4	-12
238	0x10	16
239	0x0a	10
240	0x08	8
241	0xfe	-2
242	0xfb	-5
243	0x54	84
244	0xff	-1
245	0x27	39
246	0x15	21
247	0x09	9
248	0xed	-19
249	0x29	41
250	0xf5	-11
251	0x17	23
252	0x09	9
253	0xee	-18
254	0x05	5
255	0xfd	-3
