data/neon_resnet50/bias/1.layer3.4.conv3.bias.npy (npy, 1152 bytes, 1 tensors)

array i1 [1024]
00000000: 0307 fb00 0600 0605 0003 0001 020a 0000
00000010: 0400 0000 00fa 00fd fe01 0b05 0906 04f8
00000020: ff00 0000 090a ff00 fa00 0001 0803 0000
00000030: 0200 fb0b 02fc 0b03 fffc 0901 ff01 f000
00000040: 0107 fa07 0003 0107 fd00 fffa 00ff fcf9
00000050: fefd 0001 f906 1108 01fe 0203 08fe 01f4
00000060: 07fc ff01 0001 0f0a 06fc 00fd 0002 0901
00000070: fdfd fc02 04fd 0a00 0001 0103 07fd fd0b
00000080: 03fd ff13 04f6 0101 fef7 0004 ff00 fc00
00000090: 0602 04fd 0304 ff00 0b01 0303 fd01 00ff
000000a0: fe06 000a 0500 f908 0111 fc05 0b00 03fc
000000b0: fb0a 0b00 0e02 0000 fd00 13f8 0f03 ff0c
000000c0: fef8 00fe 01f5 0309 05ff 0100 ff01 0705
000000d0: 00f8 17fd 0012 02f7 0313 0301 0000 05ff
000000e0: 0f07 f905 0700 ff03 0206 0300 03ff 0306
000000f0: 0200 ff00 fe00 ff04 0903 02f6 0404 ff03
3 7 -5 0 6 0 6 5
0 3 0 1 2 10 0 0
4 0 0 0 0 -6 0 -3
-2 1 11 5 9 6 4 -8
-1 0 0 0 9 10 -1 0
-6 0 0 1 8 3 0 0
2 0 -5 11 2 -4 11 3
-1 -4 9 1 -1 1 -16 0
1 7 -6 7 0 3 1 7
-3 0 -1 -6 0 -1 -4 -7
-2 -3 0 1 -7 6 17 8
1 -2 2 3 8 -2 1 -12
7 -4 -1 1 0 1 15 10
6 -4 0 -3 0 2 9 1
-3 -3 -4 2 4 -3 10 0
0 1 1 3 7 -3 -3 11
3 -3 -1 19 4 -10 1 1
-2 -9 0 4 -1 0 -4 0
6 2 4 -3 3 4 -1 0
11 1 3 3 -3 1 0 -1
-2 6 0 10 5 0 -7 8
1 17 -4 5 11 0 3 -4
-5 10 11 0 14 2 0 0
-3 0 19 -8 15 3 -1 12
-2 -8 0 -2 1 -11 3 9
5 -1 1 0 -1 1 7 5
0 -8 23 -3 0 18 2 -9
3 19 3 1 0 0 5 -1
15 7 -7 5 7 0 -1 3
2 6 3 0 3 -1 3 6
2 0 -1 0 -2 0 -1 4
9 3 2 -10 4 4 -1 3
